old_runs/simulation_results/K-2_L-2_M-44_J-40_N-100_D-2/version_5/checkpoints/epoch=17-step=17.ckpt (torch, 6691 bytes, 14 tensors)

model.mu_bug f4 [3, 2]
0	0x3f575508	0.8411412
1	0x3da2d567	0.079508595
2	0x3fe9f555	1.8277994
3	0xbf755f05	-0.95848113
4	0x3f89b716	1.0758998
5	0xbe0b5b24	-0.13608986

model.r_bug f4 [3]
0	0xbfe506af	-1.7892665
1	0xbf57708f	-0.84156126
2	0xbf8fbce4	-1.122952

model.mu_met f4 [2, 2]
0	0x3f102ad1	0.5631533
1	0xbe7b9ea4	-0.24572235
2	0xbf2323f9	-0.63726765
3	0x3f23887f	0.6388015

model.r_met f4 [2]
0	0xbf7476d9	-0.9549385
1	0xbf4172d4	-0.7556584

model.e_met f4 [2]
0	0x41bff129	23.992754
1	0x417fe24f	15.992751

model.pi_met f4 [1, 2]
0	0xbf00eb4c	-0.50359035
1	0xbf6c6c32	-0.9235259

model.beta f4 [4, 2]
0	0xbea103d7	-0.31448242
1	0x3e3073a5	0.17231615
2	0xbaa8d5e5	-0.0012881128
3	0xbbe362ca	-0.006939267
4	0x3b311b7a	0.0027024434
5	0x3bd917ed	0.0066251666
6	0xba555854	-0.0008138467
7	0xbbe62407	-0.0070233378

square_avg f4 [3, 2]
0	0x3c07d536	0.00829058
1	0x3c4e8848	0.012605734
2	0x3c0ed7f0	0.008718476
3	0x3c09636c	0.00838552
4	0x3c94c85e	0.018161949
5	0x3cb68949	0.02228226

square_avg f4 [3]
0	0x3cdc408a	0.026886243
1	0x3d55c703	0.052191745
2	0x3c464b2c	0.012102883

square_avg f4 [2, 2]
0	0x47631b43	58139.26
1	0x46f313d2	31113.91
2	0x46c9ef27	25847.576
3	0x4659a16b	13928.3545

square_avg f4 [2]
0	0x48f335a5	498093.16
1	0x483ca4b7	193170.86

square_avg f4 [2]
0	0x65240631	4.8411395e+22
1	0x59a12836	5.6702105e+15

square_avg f4 [1, 2]
0	0x5f7cb372	1.8209023e+19
1	0x5f7cb374	1.8209025e+19

square_avg f4 [4, 2]
0	0x4570e559	3854.3342
1	0x443601c0	728.02734
2	0x43621998	226.09998
3	0x44230968	652.147
4	0x43699cb3	233.6121
5	0x440907ae	548.12
6	0x42dae12d	109.4398
7	0x44657073	917.757
