old_runs/simulation_results/K-2_L-2_M-40_J-40_N-100_D-2/version_8/checkpoints/epoch=4999-step=4999.ckpt (torch, 6691 bytes, 14 tensors)

model.mu_bug f4 [3, 2]
0	0x3fc7f8ad	1.5622765
1	0xbf8e0b94	-1.1097283
2	0x3f4574b9	0.7713123
3	0xbea51969	-0.3224595
4	0xc246fb57	-49.74545
5	0x41ea7bf4	29.310524

model.r_bug f4 [3]
0	0xbfd34b30	-1.650732
1	0x3e83da71	0.25752595
2	0xbfaa3990	-1.3298817

model.mu_met f4 [2, 2]
0	0xbf0767cc	-0.52892756
1	0x3fe8ea10	1.819643
2	0x3f204c6c	0.6261661
3	0x3ee7a15a	0.4524029

model.r_met f4 [2]
0	0xc069d111	-3.6533854
1	0xc0658d83	-3.5867622

model.e_met f4 [2]
0	0xbf561c61	-0.8363705
1	0xbf4478ec	-0.7674701

model.pi_met f4 [1, 2]
0	0xbf93d8c6	-1.1550529
1	0xbecfa951	-0.40558866

model.beta f4 [4, 2]
0	0xbe726ef6	-0.2367514
1	0xbfee5658	-1.86201
2	0x3eaf3cb2	0.34225994
3	0x405b6b1f	3.4284132
4	0x3e2b6bfb	0.1674041
5	0xc02faad2	-2.744801
6	0x3e05893e	0.13040635
7	0x407e0ef2	3.9696622

square_avg f4 [3, 2]
0	0x476c4dbc	60493.734
1	0x4743c5bb	50117.73
2	0x479e0793	80911.15
3	0x47cfd5b7	106411.43
4	0x3e864c8e	0.26230282
5	0x3ebdf83e	0.37103456

square_avg f4 [3]
0	0x4416c69b	603.1032
1	0x428fbb52	71.86586
2	0x3c8a7db8	0.01690565

square_avg f4 [2, 2]
0	0x4aa3dd90	5.369544e+06
1	0x4aa3dd9c	5.36955e+06
2	0x4bc3154c	2.5569944e+07
3	0x4bc31558	2.5569968e+07

square_avg f4 [2]
0	0x4547c56e	3196.3394
1	0x46347aba	11550.682

square_avg f4 [2]
0	0x45072eb2	2162.9185
1	0x3e5b635f	0.21424626

square_avg f4 [1, 2]
0	0x45dbd889	7035.067
1	0x45dbd883	7035.064

square_avg f4 [4, 2]
0	0x45f15f71	7723.93
1	0x47140831	37896.19
2	0x43ca110d	404.1332
3	0x46dd0f8a	28295.77
4	0x43cb0dd3	406.108
5	0x4535cf10	2908.9414
6	0x43c87df4	400.984
7	0x454d51ec	3285.12
