old_runs/simulation_results/K-2_L-2_M-40_J-40_N-100_D-2/version_5/checkpoints/epoch=27-step=27.ckpt (torch, 6691 bytes, 14 tensors)

model.mu_bug f4 [3, 2]
00000000: 5092 3f41 a3ec 33c1 1080 a93f 5c35 a0c1
00000010: 3739 8cc0 d64c 0141
11.973221 -11.245273 1.3242207 -20.026054 -4.381984 8.081259

model.r_bug f4 [3]
00000000: 5669 88c0 03bc 92bf 22d5 b940
-4.2628584 -1.1463627 5.807267

model.mu_met f4 [2, 2]
00000000: 8105 2d3f 3e3a ce3e 8d55 1841 ecb0 03c1
0.67586523 0.4027881 9.520886 -8.230694

model.r_met f4 [2]
00000000: c860 4bbf 6af5 03c1
-0.7944455 -8.247416

model.e_met f4 [2]
00000000: afe5 8f41 c0e5 fc3f
17.98715 1.9757614

model.pi_met f4 [1, 2]
00000000: 0f4b 1a41 7a43 33c1
9.643325 -11.203974

model.beta f4 [4, 2]
00000000: 4af9 89bf 350b 24c1 99b3 753e 3ce2 1f41
00000010: 01e3 ac40 d3e0 1fc1 1223 46bd 70e3 1f41
-1.0779202 -10.252736 0.23994292 9.992733 5.4027104 -9.992389 -0.04837329 9.993027

square_avg f4 [3, 2]
00000000: d8b3 7c44 d04a 9544 e689 0b48 156d 2648
00000010: 23e5 5a42 33ae 8342
1010.81006 1194.3379 142887.6 170420.33 54.723766 65.84023

square_avg f4 [3]
00000000: 78fa 0544 fa37 823f d7b5 8444
535.9136 1.0173333 1061.6825

square_avg f4 [2, 2]
00000000: 44e6 c15a e859 bf5a 5188 2443 d5f8 6c43
2.7288925e+16 2.6930287e+16 164.53249 236.972

square_avg f4 [2]
00000000: d46a 0c5e 47ec b645
2.5295332e+18 5853.5347

square_avg f4 [2]
00000000: ffe7 ae68 401d a951
6.607771e+24 9.0792526e+10

square_avg f4 [1, 2]
00000000: 2f98 9b62 2b98 9b62
1.4351057e+21 1.4351051e+21

square_avg f4 [4, 2]
00000000: bb59 e649 7761 723e b777 f349 5efe 4141
00000010: 91eb 9549 07c0 3041 0564 7749 21c3 5241
1.8870314e+06 0.23669992 1.9944869e+06 12.124601 1.2281461e+06 11.046882 1.0133123e+06 13.172639
