old_runs/simulation_results/K-2_L-2_M-44_J-40_N-5_D-2/version_0/checkpoints/epoch=4999-step=4999.ckpt (torch, 6691 bytes, 14 tensors)

model.mu_bug f4 [3, 2]
11.545992 -2.5340562 9.447584 -0.25298697 -1.9267985 -8.019088
00000000: 62bc 3841 fa2d 22c0 4e29 1741 8287 81be
00000010: 55a1 f6bf 2f4e 00c1

model.r_bug f4 [3]
-1.3514328 -1.3476877 -1.341732
00000000: c0fb acbf 0881 acbf e0bd abbf

model.mu_met f4 [2, 2]
-0.69570524 0.59507143 0.6203641 -0.3029005
00000000: bd19 32bf 9a56 183f 2fd0 1e3f c615 9bbe

model.r_met f4 [2]
-3.3842611 -3.770926
00000000: bc97 58c0 da56 71c0

model.e_met f4 [2]
-0.84024453 -0.8750437
00000000: 441a 57bf dd02 60bf

model.pi_met f4 [1, 2]
-0.9680157 -0.45909914
00000000: e0cf 77bf 0b0f ebbe

model.beta f4 [4, 2]
0.11576928 0.12732944 0.8245098 0.03348265 0.30212623 -0.094204 0.25353694 0.32237065
00000000: 7218 ed3d a662 023e 1313 533f 1a25 093d
00000010: 4ab0 9a3e 07ee c0bd 98cf 813e c40d a53e

square_avg f4 [3, 2]
0.006756963 0.1761706 0.0003981616 0.079664625 0.22114028 0.06849718
00000000: 8469 dd3b 1166 343e 58c0 d039 3527 a33d
00000010: 9972 623e 4048 8c3d

square_avg f4 [3]
0.0027796924 0.002544958 0.002451109
00000000: 802b 363b 4fc9 263b c9a2 203b

square_avg f4 [2, 2]
13934.54 13934.473 67879.29 67879.7
00000000: 29ba 5946 e4b9 5946 a593 8447 da93 8447

square_avg f4 [2]
12.792671 18.066896
00000000: c8ae 4c41 0189 9041

square_avg f4 [2]
0.72190356 0.21818416
00000000: acce 383f ab6b 5f3e

square_avg f4 [1, 2]
22.80648 22.806486
00000000: ac73 b641 af73 b641

square_avg f4 [4, 2]
496.70255 1079.1661 235.33751 160.07689 189.97813 160.4508 142.96715 161.14595
00000000: ed59 f843 51e5 8644 6756 6b43 af13 2043
00000010: 67fa 3d43 6873 2043 97f7 0e43 5d25 2143
