old_runs/simulation_results/K-2_L-2_M-44_J-40_N-100_D-2/version_6/checkpoints/epoch=72-step=72.ckpt (torch, 6691 bytes, 14 tensors)

model.mu_bug f4 [3, 2]
00000000: aa8f 5dbe 5414 81bf d215 f3be ba46 383d
00000010: f19f bc3f a783 bc3f
-0.21636835 -1.0084329 -0.47477585 0.044989325 1.473631 1.4727677

model.r_bug f4 [3]
00000000: fe3e b6bf 56ab aebf f65b bbbf
-1.4237974 -1.3646038 -1.4637439

model.mu_met f4 [2, 2]
00000000: 088d 92bd cbc3 643e 328d 103f 6846 82be
-0.07155806 0.22340314 0.56465447 -0.2544434

model.r_met f4 [2]
00000000: 83f9 94bf 0a5f 77c0
-1.1638645 -3.8651757

model.e_met f4 [2]
00000000: 1d58 9d41 aa03 3941
19.668024 11.563395

model.pi_met f4 [1, 2]
00000000: 543a 7c3f 7564 1ac0
0.985265 -2.4123814

model.beta f4 [4, 2]
00000000: 56f7 0fbe 2788 a7be 9d42 8cbf ec39 f5bd
00000010: 154b b0bd 1517 883e 7863 9ebf d492 64be
-0.14059195 -0.32721063 -1.0957829 -0.11973938 -0.08608071 0.2658011 -1.2374105 -0.22321635

square_avg f4 [3, 2]
00000000: 0969 f043 0a84 7344 6f3c 8643 5dbf 3443
00000010: da9a 0144 5d0a 9042
480.8206 974.0631 268.47214 180.74751 518.41956 72.02024

square_avg f4 [3]
00000000: 97f7 7e40 ae4d 613d af06 913e
3.9838617 0.05500572 0.28325412

square_avg f4 [2, 2]
00000000: b3a1 8d49 1f41 4b49 0123 084a 3975 314a
1.1602464e+06 832529.94 2.2304642e+06 2.9074702e+06

square_avg f4 [2]
00000000: 190e 2a49 ac3a ba49
696545.56 1.5255895e+06

square_avg f4 [2]
00000000: d7e7 df62 8540 6557
2.0651649e+21 2.5206527e+14

square_avg f4 [1, 2]
00000000: 5f9b f45c 5f9b f45c
5.508058e+17 5.508058e+17

square_avg f4 [4, 2]
00000000: 2462 dc46 c1cf ea44 4f6e 0945 6ff4 1b43
00000010: eb19 c244 5d22 6243 5a93 0d45 be38 cb42
28209.07 1878.4923 2198.8943 155.95482 1552.8099 226.13423 2265.2095 101.610825
