old_runs/simulation_results/K-2_L-2_M-44_J-40_N-100_D-2/version_1/checkpoints/epoch=499-step=499.ckpt (torch, 6691 bytes, 14 tensors)

model.mu_bug f4 [3, 2]
0	0x3f9ee00d	1.2412125
1	0xbed8fb3c	-0.42379177
2	0x3fe0b1fe	1.7554319
3	0xbf451f8e	-0.77001274
4	0x3fb61648	1.422555
5	0xbd209588	-0.039205104

model.r_bug f4 [3]
0	0xbfc59a9f	-1.5437812
1	0xbfc6053b	-1.5470346
2	0xbfb8788b	-1.4411787

model.mu_met f4 [2, 2]
0	0x3f1335cc	0.5750396
1	0xbe83f2f4	-0.25771296
2	0xbf264c36	-0.6496004
3	0x3f2427b7	0.641231

model.r_met f4 [2]
0	0xc07a5d0d	-3.9119294
1	0xc05fceb5	-3.4969914

model.e_met f4 [2]
0	0x41a3f3b3	20.493994
1	0x4146e550	12.4309845

model.pi_met f4 [1, 2]
0	0x3f8981d1	1.0742742
1	0xc02016cd	-2.5013916

model.beta f4 [4, 2]
0	0xbe9efeae	-0.3105368
1	0x3e723f32	0.2365692
2	0x3d27484e	0.04084044
3	0xbf66f2f2	-0.90214455
4	0xbd3a9fd0	-0.045562565
5	0x3fac6579	1.3468467
6	0xbd8e1d1a	-0.069391444
7	0xbf1fab50	-0.6237078

square_avg f4 [3, 2]
0	0x45845ef2	4235.868
1	0x44e4ba94	1829.8306
2	0x45b5ad7c	5813.6855
3	0x457a8da5	4008.8528
4	0x44871c78	1080.8896
5	0x44dfef66	1791.4812

square_avg f4 [3]
0	0x3e9596f0	0.2921672
1	0x3fd08ed3	1.6293586
2	0x3ee4ae20	0.44664097

square_avg f4 [2, 2]
0	0x48ae760b	357296.34
1	0x48af2f31	358777.53
2	0x47885a1d	69812.23
3	0x47881977	69682.93

square_avg f4 [2]
0	0x4779d709	63959.035
1	0x46ab12cd	21897.4

square_avg f4 [2]
0	0x62949fe2	1.3708194e+21
1	0x5726a6e3	1.832357e+14

square_avg f4 [1, 2]
0	0x5b3bcb46	5.2859322e+16
1	0x5b3bcb4d	5.2859352e+16

square_avg f4 [4, 2]
0	0x46b66c90	23350.281
1	0x46123cf6	9359.24
2	0x453ad8e2	2989.5552
3	0x4484a513	1061.1586
4	0x452deba1	2782.7268
5	0x449f7f29	1275.9738
6	0x451eb556	2539.3335
7	0x4483adeb	1053.4349
