old_runs/simulation_results/K-2_L-2_M-44_J-40_N-100_D-2/version_2/checkpoints/epoch=4999-step=4999.ckpt (torch, 6691 bytes, 14 tensors)

model.mu_bug f4 [3, 2]
00000000: e5a9 a43f f0c2 00bf f4f5 d13f 6a50 36bf
00000010: cfd5 b33f 602b 293d
1.2864348 -0.5029745 1.6403184 -0.7121645 1.4049624 0.04130113

model.r_bug f4 [3]
00000000: 122a b6bf dd73 a7bf 4949 b1bf
-1.4231589 -1.3082234 -1.385049

model.mu_met f4 [2, 2]
00000000: 1743 133f 08fb 83be 2c50 26bf 2e20 243f
0.57524246 -0.2577746 -0.6496608 0.641116

model.r_met f4 [2]
00000000: ef09 7ac0 6f7c 5fc0
-3.9068563 -3.4919698

model.e_met f4 [2]
00000000: 6bff e13f 9a33 59bf
1.7656072 -0.8484436

model.pi_met f4 [1, 2]
00000000: fbc2 03bf f294 69bf
-0.5146939 -0.912429

model.beta f4 [4, 2]
00000000: 43ad 8fbe 1669 323e 3cac 85bd 0605 9cbf
00000010: 94e3 273d fd23 a83f e0ad b4bc 6703 41be
-0.28061876 0.174229 -0.06526992 -1.2189033 0.04098852 1.3135983 -0.022055566 -0.18848954

square_avg f4 [3, 2]
00000000: 4e53 2c46 e015 b145 bf8e 2b46 28b0 c845
00000010: ebc4 6743 81fc b243
11028.826 5666.7344 10979.687 6422.0195 231.76921 357.9727

square_avg f4 [3]
00000000: dd97 a43f e5a3 4b40 9e21 0e3e
1.2858845 3.1818783 0.13880011

square_avg f4 [2, 2]
00000000: e3b7 af48 d5b7 af48 513f 8847 363f 8847
359871.1 359870.66 69758.63 69758.42

square_avg f4 [2]
00000000: 1407 0f43 709e 7e42
143.02765 63.654724

square_avg f4 [2]
00000000: 3767 9547 90a8 143b
76494.43 0.002268348

square_avg f4 [1, 2]
00000000: 71eb b842 7eeb b842
92.45985 92.459946

square_avg f4 [4, 2]
00000000: 6acc b946 20bd 0d46 6c3d 0446 2330 0045
00000010: 87e0 2a46 78f6 eb44 d779 1b46 9919 f844
23782.207 9071.281 8463.355 2051.0085 10936.132 1887.7021 9950.46 1984.7999
