old_runs/simulation_results/K-2_L-2_M-44_J-40_N-100_D-2/version_0/checkpoints/epoch=499-step=499.ckpt (torch, 6691 bytes, 14 tensors)

model.mu_bug f4 [3, 2]
1.6418403 -0.4059913 1.0386627 -0.24551316 1.7698461 -0.9921919
00000000: d327 d23f 17de cfbe e6f2 843f cd67 7bbe
00000010: 518a e23f 4a00 7ebf

model.r_bug f4 [3]
-1.1236669 -1.0994927 -1.1254336
00000000: 51d4 8fbf 2dbc 8cbf 350e 90bf

model.mu_met f4 [2, 2]
0.5638508 -0.28687087 -0.64883035 0.6314437
00000000: 8758 103f bde0 92be bf19 26bf 4ba6 213f

model.r_met f4 [2]
-2.5729182 -2.3343437
00000000: b1aa 24c0 e365 15c0

model.e_met f4 [2]
20.493994 12.4309845
00000000: b3f3 a341 50e5 4641

model.pi_met f4 [1, 2]
1.0742742 -2.501392
00000000: d181 893f ce16 20c0

model.beta f4 [4, 2]
-0.30913144 0.21668634 -0.008514326 0.0489493 0.0016337289 -0.02295989 -0.043350868 0.01726702
00000000: 7a46 9ebe 06e3 5d3e ac7f 0bbc 107f 483d
00000010: d822 d63a 6116 bcbc ae90 31bd 9173 8d3c

square_avg f4 [3, 2]
36.89041 77.34593 19.444109 32.336197 8.216524 9.277517
00000000: c88f 1342 1eb1 9a42 898d 9b41 4458 0142
00000010: e276 0341 b670 1441

square_avg f4 [3]
0.011093167 0.00969222 0.011455859
00000000: 1dc0 353c 1ecc 1e3c 5bb1 3b3c

square_avg f4 [2, 2]
25383.004 27597.451 7063.032 7064.642
00000000: 024e c646 e79a d746 42b8 dc45 23c5 dc45

square_avg f4 [2]
10803.237 4450.9365
00000000: f3cc 2846 7e17 8b45

square_avg f4 [2]
1.3708194e+21 1.832357e+14
00000000: e29f 9462 e3a6 2657

square_avg f4 [1, 2]
5.285934e+16 5.2859365e+16
00000000: 4acb 3b5b 50cb 3b5b

square_avg f4 [4, 2]
23475.871 8969.957 2705.9587 1275.658 3343.6152 1370.0171 2346.2305 1584.5071
00000000: be67 b746 d427 0c46 571f 2945 0e75 9f44
00000010: d8f9 5045 8c40 ab44 b0a3 1245 3a10 c644
