old_runs/simulation_results/K-2_L-2_M-40_J-40_N-100_D-2/version_2/checkpoints/epoch=4999-step=4999.ckpt (torch, 6691 bytes, 14 tensors)

model.mu_bug f4 [3, 2]
0	0x3fcb1976	1.5867145
1	0xbf2ae27c	-0.6675184
2	0x3fa87bcb	1.3162779
3	0xbeaaea5f	-0.33381936
4	0x3fc95355	1.5728556
5	0xbf2a7dea	-0.6659838

model.r_bug f4 [3]
0	0xbfab9942	-1.3406146
1	0xbfd4d383	-1.6627048
2	0xbfb0f6c7	-1.382531

model.mu_met f4 [2, 2]
0	0x3f2e6c98	0.6813445
1	0x3ecb60e4	0.3972236
2	0xbef1c577	-0.47220966
3	0x3fe1a79d	1.7629277

model.r_met f4 [2]
0	0xc06b44ec	-3.6760817
1	0xc07069d4	-3.7564592

model.e_met f4 [2]
0	0x40b79f61	5.7382054
1	0xbf5dec13	-0.86688346

model.pi_met f4 [1, 2]
0	0xbe9ed80c	-0.31024206
1	0xbfa00d38	-1.2504034

model.beta f4 [4, 2]
0	0xbfe443c3	-1.7833179
1	0xbe9d1046	-0.30676478
2	0x3fc36830	1.526617
3	0xbd6730d7	-0.05644306
4	0xc035395d	-2.8316262
5	0xbd35bea0	-0.044371247
6	0x3fb3502b	1.400884
7	0x3c8cbfba	0.017181266

square_avg f4 [3, 2]
0	0x479f8609	81676.07
1	0x47b95515	94890.164
2	0x4862461c	231704.44
3	0x48cc75ae	418733.44
4	0x46ded39d	28521.807
5	0x47084171	34881.44

square_avg f4 [3]
0	0x411269ac	9.150799
1	0x411e8ed6	9.909872
2	0x403b407b	2.9258106

square_avg f4 [2, 2]
0	0x4896c08b	308740.34
1	0x4896c06c	308739.38
2	0x47821263	66596.77
3	0x47821246	66596.55

square_avg f4 [2]
0	0x4342f34e	194.95041
1	0x420ee5f0	35.72455

square_avg f4 [2]
0	0x4d5c5380	2.3102874e+08
1	0x3b2056dd	0.0024465837

square_avg f4 [1, 2]
0	0x429eb48c	79.35263
1	0x429eb4e5	79.35331

square_avg f4 [4, 2]
0	0x46fce4c3	32370.38
1	0x459f74f5	5102.6196
2	0x46853d9a	17054.8
3	0x4540180e	3073.5034
4	0x45de54e1	7114.61
5	0x4545fa36	3167.6382
6	0x45d0a6db	6676.857
7	0x4542c052	3116.02
