old_runs/simulation_results/K-2_L-2_M-40_J-40_N-5_D-2/version_0/checkpoints/epoch=4999-step=4999.ckpt (torch, 6691 bytes, 14 tensors)

model.mu_bug f4 [3, 2]
2.0241814 -1.771366 -0.88921016 -8.413378 -3.1354854 6.5441284
00000000: 308c 0140 1fbc e2bf 47a3 63bf 329d 06c1
00000010: cbab 48c0 8069 d140

model.r_bug f4 [3]
-1.3925408 -1.3138751 -1.3315526
00000000: c73e b2bf 0f2d a8bf 5170 aabf

model.mu_met f4 [2, 2]
-0.5274858 1.8182486 0.72641414 0.45243073
00000000: 4f09 07bf 5fbc e83f 47f6 393f 00a5 e73e

model.r_met f4 [2]
-3.61241 -3.5674145
00000000: ba31 67c0 8550 64c0

model.e_met f4 [2]
-0.8364358 -0.86884844
00000000: a820 56bf da6c 5ebf

model.pi_met f4 [1, 2]
-1.2590894 -0.3015586
00000000: d729 a1bf e465 9abe

model.beta f4 [4, 2]
-0.18093802 -2.28681 0.21863547 2.860393 -0.10295858 -0.66413826 0.14155601 1.6987741
00000000: d147 39be 185b 12c0 fae1 5f3e ae10 3740
00000010: f3db d2bd f704 2abf 0ff4 103e 6e71 d93f

square_avg f4 [3, 2]
272.22617 606.88837 14.557687 1.030202 3.4054842 1.421709
00000000: f31c 8843 dbb8 1744 49ec 6841 a9dd 833f
00000010: 74f3 5940 8ffa b53f

square_avg f4 [3]
8.402797 0.0032007236 0.0026630678
00000000: db71 0641 3bc3 513b dd86 2e3b

square_avg f4 [2, 2]
12363.127 12357.896 61499.59 61499.77
00000000: 822c 4146 9617 4146 973b 7047 c53b 7047

square_avg f4 [2]
5.2656627 27.6663
00000000: 4f80 a840 9554 dd41

square_avg f4 [2]
2162.8755 0.21620342
00000000: 022e 0745 6e64 5d3e

square_avg f4 [1, 2]
17.537945 17.537935
00000000: b64d 8c41 b14d 8c41

square_avg f4 [4, 2]
279.39603 1468.8679 114.86907 567.8072 103.26544 614.096 112.74361 637.3206
00000000: b1b2 8b43 c69b b744 f7bc e542 a9f3 0d44
00000010: e887 ce42 2586 1944 ba7c e142 8554 1f44
