old_runs/simulation_results/K-2_L-2_M-40_J-40_N-100_D-2/version_6/checkpoints/epoch=249-step=249.ckpt (torch, 6691 bytes, 14 tensors)

model.mu_bug f4 [3, 2]
000000 74 fe ef 3f 82 f6 89 bf bb 95 7e 3f f8 77 3e bd
       1.8749528 -1.0778353 0.9944722 -0.04650113
000010 c7 e4 de 3f 13 a7 61 bf
       1.7413567 -0.8814556

model.r_bug f4 [3]
000000 88 b1 b5 bf a0 79 43 bf f0 63 4e bf
       -1.4194803 -0.7635746 -0.8062124

model.mu_met f4 [2, 2]
000000 0f 79 26 3f 5b 7b dc 3e 77 f8 e5 be aa 89 de 3f
       0.6502847 0.43062863 -0.44916126 1.7385762

model.r_met f4 [2]
000000 20 d5 54 bf b8 50 a0 bf
       -0.831377 -1.2524633

model.e_met f4 [2]
000000 b1 b4 df 41 4e 69 3f 41
       27.963228 11.963209

model.pi_met f4 [1, 2]
000000 ae ed a3 be dd c7 9e bf
       -0.32017273 -1.2404743

model.beta f4 [4, 2]
000000 a4 70 e9 bf 8d 59 9d be 1d 04 80 3e 44 89 2f 3c
       -1.82375 -0.30732384 0.25003138 0.010713879
000010 fa 2e 9c bf 03 98 39 bc cf fa 15 3d 7b 12 23 3c
       -1.2201836 -0.011327746 0.036616143 0.009953137

square_avg f4 [3, 2]
000000 0a b6 8c 43 b5 9f 60 43 1f 43 1d 45 38 e9 29 45
       281.42218 224.62386 2516.195 2718.5762
000010 f3 e1 73 40 fe 7d a1 40
       3.8106658 5.04663

square_avg f4 [3]
000000 03 1b 09 3f ad 29 03 40 2c 57 de 3e
       0.5355684 2.0494187 0.43425882

square_avg f4 [2, 2]
000000 ef aa 4c 45 84 c0 cd 45 d8 a0 21 46 6c 81 88 46
       3274.6833 6584.0645 10344.211 17472.71

square_avg f4 [2]
000000 a6 b8 a3 4a 1d 4e 20 49
       5.364819e+06 656609.8

square_avg f4 [2]
000000 e3 7a 1b 6c f7 20 17 55
       7.518553e+26 1.038549e+13

square_avg f4 [1, 2]
000000 34 19 00 66 33 19 00 66
       1.5123196e+23 1.5123194e+23

square_avg f4 [4, 2]
000000 c5 d6 ce 46 a7 f3 7e 45 67 a4 b8 49 be a9 b6 43
       26475.385 4079.2283 1.5125889e+06 365.3261
000010 49 5b 68 48 64 d0 af 43 b1 e7 54 48 f8 0b bc 43
       237933.14 351.62805 218014.77 376.0935
