old_runs/simulation_results/K-2_L-2_M-44_J-40_N-100_D-2/version_4/checkpoints/epoch=32-step=32.ckpt (torch, 6691 bytes, 14 tensors)

model.mu_bug f4 [3, 2]
0	0xbc324f05	-0.010883098
1	0xc1a2c9a4	-20.348457
2	0xc14c75f0	-12.778793
3	0x40c7adc7	6.239963
4	0x3fc1b241	1.5132524
5	0x41ce8f41	25.819948

model.r_bug f4 [3]
0	0xc0ca03e6	-6.312976
1	0x40bde0e6	5.9337034
2	0xbf9aafa5	-1.2084852

model.mu_met f4 [2, 2]
0	0x3f111c54	0.5668385
1	0xbe802af7	-0.2503278
2	0xbf2506ad	-0.6446331
3	0x3f25695c	0.6461389

model.r_met f4 [2]
0	0xbf7296b8	-0.9476123
1	0xbf3f992e	-0.7484311

model.e_met f4 [2]
0	0x415fc15b	13.984706
1	0x40bf0a22	5.969987

model.pi_met f4 [1, 2]
0	0x4117d3a5	9.489171
1	0xc12ea91c	-10.916286

model.beta f4 [4, 2]
0	0x3de4445a	0.111458495
1	0x3f52e95a	0.82387316
2	0xbf875acb	-1.0574583
3	0x3d57fac1	0.052729372
4	0xbea20649	-0.3164542
5	0x4140a029	12.039102
6	0xbec30fdb	-0.38098034
7	0x40da771a	6.827039

square_avg f4 [3, 2]
0	0x474287a3	49799.637
1	0x476935ef	59701.934
2	0x4424c0a9	659.0103
3	0x4499f03a	1231.5071
4	0x45118c1d	2328.757
5	0x4451fe73	839.97577

square_avg f4 [3]
0	0x4864118d	233542.2
1	0x448b3d97	1113.9247
2	0x3f89165f	1.0709952

square_avg f4 [2, 2]
0	0x58cd0ad8	1.8035717e+15
1	0x58daa5ab	1.9232406e+15
2	0x5a24d79b	1.1599739e+16
3	0x5a2dd54d	1.2232424e+16

square_avg f4 [2]
0	0x5c027c3b	1.4691336e+17
1	0x5d5d9b77	9.980305e+17

square_avg f4 [2]
0	0x62e806dc	2.1400694e+21
1	0x5763c82f	2.5044892e+14

square_avg f4 [1, 2]
0	0x5d348b69	8.1310046e+17
1	0x5d348b6c	8.131007e+17

square_avg f4 [4, 2]
0	0x495ffc4f	917444.94
1	0x4948dad1	822701.06
2	0x4817e5d7	155543.36
3	0x4885d629	274097.28
4	0x49a68323	1.3640684e+06
5	0x45429deb	3113.8699
6	0x48c9403a	412161.8
7	0x4518aace	2442.6753
