old_runs/simulation_results/K-2_L-2_M-40_J-40_N-5_D-2/version_1/checkpoints/epoch=4775-step=4775.ckpt (torch, 6691 bytes, 14 tensors)

model.mu_bug f4 [3, 2]
000000 47 e6 07 40 71 a7 df bf 6e a9 01 bf 27 a5 fd c0
       2.12343 -1.7472974 -0.50649154 -7.92641
000010 dd 37 4e c0 3a 3a c9 40
       -3.2221596 6.2883577

model.r_bug f4 [3]
000000 51 85 c2 bf c1 58 ad bf df c1 b8 bf
       -1.5196935 -1.354271 -1.4434165

model.mu_met f4 [2, 2]
000000 eb 01 07 bf 1e b6 e8 3f 3b 0e 3a 3f 02 e4 e7 3e
       -0.527373 1.8180578 0.72677964 0.45291144

model.r_met f4 [2]
000000 d0 2f 67 c0 13 70 62 c0
       -3.6122932 -3.5380905

model.e_met f4 [2]
000000 4b c5 05 bf b7 a6 5f bf
       -0.5225417 -0.8736376

model.pi_met f4 [1, 2]
000000 03 ab a1 bf 14 61 98 be
       -1.2630314 -0.29761565

model.beta f4 [4, 2]
000000 7d 58 ad be da 01 2c c0 ce 38 e3 3e a8 1a 28 40
       -0.33856574 -2.687613 0.44379276 2.626627
000010 c0 c0 79 bc fa 00 cf be 96 08 83 3d 7a c6 ba 3f
       -0.015243709 -0.40430433 0.06398122 1.459182

square_avg f4 [3, 2]
000000 1f 73 6a 43 4e 45 c9 43 35 d1 49 41 8e 8c 5b 3f
       234.44969 402.54144 12.613576 0.85761344
000010 03 d9 5d 40 09 0e c2 3f
       3.4663703 1.5160533

square_avg f4 [3]
000000 6c 91 fb 40 74 ae 38 3b 14 b2 3b 3b
       7.8615017 0.0028180154 0.0028640078

square_avg f4 [2, 2]
000000 b0 85 41 46 b4 43 41 46 bc 91 6c 47 5a 72 6c 47
       12385.422 12368.926 60561.734 60530.35

square_avg f4 [2]
000000 c1 ea 88 40 c3 07 37 42
       4.2786565 45.75758

square_avg f4 [2]
000000 25 70 a0 46 4c 8b 66 3e
       20536.072 0.22514075

square_avg f4 [1, 2]
000000 6c 67 92 41 6d 67 92 41
       18.300499 18.3005

square_avg f4 [4, 2]
000000 9e de 81 43 e5 f4 d2 44 db 3a c1 42 d0 41 4a 44
       259.7392 1687.653 96.61495 809.0283
000010 2a f4 d5 42 07 b4 33 44 05 0f b6 42 c1 35 5a 44
       106.97688 718.8129 91.029335 872.8399
