old_runs/simulation_results/K-2_L-2_M-60_J-40_N-100_D-2/version_2/checkpoints/epoch=4999-step=4999.ckpt (torch, 6691 bytes, 14 tensors)

model.mu_bug f4 [3, 2]
00000000: 3830 d43f eeed 2bbf 5304 a43f fc3b d0be
00000010: 92b1 d53f ee21 2abf
1.6577215 -0.67159927 1.281382 -0.40670764 1.6694815 -0.6645802

model.r_bug f4 [3]
00000000: f4d9 e7bf df3f 2ebd 85fc dabf
-1.8113389 -0.04254138 -1.7108313

model.mu_met f4 [2, 2]
00000000: a401 f8be c062 a03c 27c8 5abf ef90 2fbf
-0.48438752 0.019578338 -0.8546166 -0.68580526

model.r_met f4 [2]
00000000: 8742 63c0 af89 80c0
-3.5509355 -4.016807

model.e_met f4 [2]
00000000: 319b 9740 d727 5cbf
4.7376943 -0.8599829

model.pi_met f4 [1, 2]
00000000: 22ba c0be 55fd 91bf
-0.37642008 -1.1405436

model.beta f4 [4, 2]
00000000: 59ac 34bf 02f4 aabe fbf6 05c0 f872 ea3f
00000010: 9e58 d43f 4c66 2bc0 84e8 bcbf 1d3f 4e3f
-0.7057548 -0.33389288 -2.0931995 1.8316336 1.6589544 -2.6781187 -1.4758458 0.80565053

square_avg f4 [3, 2]
00000000: 8c6e bd47 3daa ac47 0dde a148 8b57 7948
00000010: d70a 2547 17c4 2247
96989.09 88404.48 331504.4 255326.17 42250.84 41668.09

square_avg f4 [3]
00000000: 245f bc40 3f5c b343 716b 7a40
5.886614 358.72067 3.9128077

square_avg f4 [2, 2]
00000000: c7b2 5748 b37c 5b48 9886 f647 a02d 0448
220875.11 224754.8 126221.19 135350.5

square_avg f4 [2]
00000000: 59f3 2d43 0d12 6142
173.95058 56.267628

square_avg f4 [2]
00000000: 8b31 ef4b 9d8d 153b
3.1351574e+07 0.0022820004

square_avg f4 [1, 2]
00000000: 0ea5 a142 f4a4 a142
80.82237 80.822174

square_avg f4 [4, 2]
00000000: ce11 ea46 00c7 b945 c74e aa45 1d34 8045
00000010: 963a 8f46 da88 ad44 a0e2 d845 2a1c c744
29960.902 5944.875 5449.847 4102.514 18333.293 1388.2766 6940.328 1592.8801
