old_runs/simulation_results/K-2_L-2_M-40_J-40_N-100_D-2/version_1/checkpoints/epoch=499-step=499.ckpt (torch, 6691 bytes, 14 tensors)

model.mu_bug f4 [3, 2]
000000 d2 19 d2 3f 16 fb 23 bf c4 43 a7 3f 37 4d b3 be
       1.641413 -0.64055 1.3067555 -0.35019848
000010 dd 78 ce 3f cd 0d 3f bf
       1.6130635 -0.74630433

model.r_bug f4 [3]
000000 71 9a e0 bf f9 3f b9 bf 9c af c5 bf
       -1.7547132 -1.4472648 -1.5444217

model.mu_met f4 [2, 2]
000000 39 6b 2e 3f c1 65 cb 3e dd bf f1 be cd a7 e1 3f
       0.6813236 0.3972607 -0.47216693 1.7629334

model.r_met f4 [2]
000000 21 97 6b c0 dd bb 70 c0
       -3.6810992 -3.7614663

model.e_met f4 [2]
000000 10 ee c3 41 82 e5 06 41
       24.491241 8.431032

model.pi_met f4 [1, 2]
000000 9d 40 98 3f f5 01 30 c0
       1.1894718 -2.7501194

model.beta f4 [4, 2]
000000 25 18 e8 bf d0 4b 7a be 2f e8 ba 3f d5 4f b3 bd
       -1.8132368 -0.24442983 1.4602107 -0.08755461
000010 c6 7d 2f c0 a7 e0 c2 bd 75 b6 b2 3f 38 66 13 bc
       -2.7420516 -0.09515505 1.3961931 -0.008996539

square_avg f4 [3, 2]
000000 06 3f 50 47 ca 81 61 47 1b 38 26 48 47 86 9c 48
       53311.023 57729.79 170208.42 320562.22
000010 2a 05 5c 46 0d 07 49 46
       14081.291 12865.763

square_avg f4 [3]
000000 2f c4 33 40 c6 84 1d 41 33 c6 c8 3f
       2.808849 9.844915 1.5685486

square_avg f4 [2, 2]
000000 0a b0 96 48 89 a0 96 48 ba 0c 82 47 74 01 82 47
       308608.3 308484.28 66585.45 66562.91

square_avg f4 [2]
000000 61 fc b7 47 65 47 22 46
       94200.76 10385.849

square_avg f4 [2]
000000 d7 db 56 68 64 15 6c 51
       4.058567e+24 6.3373197e+10

square_avg f4 [1, 2]
000000 ed 74 8c 60 ee 74 8c 60
       8.09678e+19 8.096781e+19

square_avg f4 [4, 2]
000000 73 50 f8 46 f7 92 a4 45 8f 0e 8d 46 4b a7 9d 44
       31784.225 5266.3706 18055.28 1261.2279
000010 c4 b2 c3 45 95 07 a1 44 fd c8 cb 45 73 39 ae 44
       6262.3457 1288.2369 6521.1235 1393.7953
