old_runs/simulation_results/K-2_L-2_M-44_J-40_N-100_D-2/version_3/checkpoints/epoch=890-step=890.ckpt (torch, 6691 bytes, 14 tensors)

model.mu_bug f4 [3, 2]
00000000: d61f a23f c174 d1be 6747 d93f dc84 36bf
00000010: 5d6a b43f 91a8 1cbe
1.2665966 -0.4090939 1.6974915 -0.7129648 1.409496 -0.15298678

model.r_bug f4 [3]
00000000: 4b5c b2bf 36ee bbbf 6b51 b6bf
-1.3934416 -1.4682071 -1.4243597

model.mu_met f4 [2, 2]
00000000: eab3 103f 05b2 7dbe 10bf 23bf 83b0 263f
0.5652453 -0.2477494 -0.63963413 0.65113086

model.r_met f4 [2]
00000000: 2c5c 7ac0 95ce 5fc0
-3.9118757 -3.4969838

model.e_met f4 [2]
00000000: a6c0 9641 4428 2c41
18.844067 10.75983

model.pi_met f4 [1, 2]
00000000: 8dfc b03f 2ed4 33c0
1.3827072 -2.8098254

model.beta f4 [4, 2]
00000000: f1b9 9dbe 4570 5b3e 141b 1e3c b005 82bf
00000010: 0a9c a5bb 99c9 b03f ea9d 643c dd75 0ebf
-0.30805925 0.21429546 0.009650011 -1.0157986 -0.0050540017 1.3811523 0.013953665 -0.55648595

square_avg f4 [3, 2]
00000000: 7f23 bb45 6ee8 5245 9422 1046 f085 e245
00000010: c58b 8044 633b f544
5988.437 3374.5269 9224.645 7248.742 1028.3678 1961.8558

square_avg f4 [3]
00000000: 9848 2e3f 5b04 3340 9363 483e
0.6807952 2.7971408 0.19569235

square_avg f4 [2, 2]
00000000: 8eb8 af48 c6ad af48 2543 8847 0146 8847
359876.44 359790.2 69766.29 69772.01

square_avg f4 [2]
00000000: 7419 9d44 5624 d743
1256.7954 430.28387

square_avg f4 [2]
00000000: 6e9d 3b60 cc35 d654
5.407633e+19 7.3602045e+12

square_avg f4 [1, 2]
00000000: ab08 7258 b308 7258
1.0644762e+15 1.0644767e+15

square_avg f4 [4, 2]
00000000: 2ebe b346 734f 1446 f59c 5045 30ae b844
00000010: c296 7845 9ff3 cc44 244b 4c45 da6b ac44
23007.09 9491.862 3337.8098 1477.4434 3977.4224 1639.6132 3268.6963 1379.3704
