old_runs/simulation_results/K-2_L-2_M-44_J-40_N-100_D-2/version_7/checkpoints/epoch=330-step=330.ckpt (torch, 6691 bytes, 14 tensors)

model.mu_bug f4 [3, 2]
0	0xbf45b74b	-0.7723281
1	0xbfcb67e1	-1.5891076
2	0xbf6a58ce	-0.91541755
3	0xbdc9230b	-0.09821137
4	0x3fe1ab79	1.7630454
5	0x3f8b86d2	1.0900519

model.r_bug f4 [3]
0	0xbfb923bd	-1.4464031
1	0xbfb7c65c	-1.435741
2	0xbfaeb988	-1.365037

model.mu_met f4 [2, 2]
0	0xbd742129	-0.059601936
1	0x3d747020	0.059677243
2	0x3f15d9ce	0.5853547
3	0xbe970501	-0.29496005

model.r_met f4 [2]
0	0xbf8ccf5b	-1.100078
1	0xc09730af	-4.724693

model.e_met f4 [2]
0	0x418bad80	17.459717
1	0x41155de3	9.335422

model.pi_met f4 [1, 2]
0	0x3f95570a	1.1667187
1	0xc026016d	-2.593837

model.beta f4 [4, 2]
0	0x3a9539c0	0.0011385009
1	0xbeb065d8	-0.344527
2	0xbf56c8f6	-0.8390039
3	0x3e8143b5	0.2524697
4	0x3ccaf7a4	0.024776287
5	0x3dd65888	0.10466105
6	0xbfa066d8	-1.2531385
7	0x3e11ad0e	0.14226171

square_avg f4 [3, 2]
0	0x443249f3	713.15546
1	0x448c5336	1122.6003
2	0x41a39622	20.448307
3	0x419dd491	19.728792
4	0x44aca53a	1381.1633
5	0x437bc150	251.75513

square_avg f4 [3]
0	0x3eafab40	0.3431034
1	0x3c9bb3d0	0.01900664
2	0x3f5de5d2	0.866788

square_avg f4 [2, 2]
0	0x487b59a4	257382.56
1	0x485f51f7	228679.86
2	0x4a474046	3.2645295e+06
3	0x4a91a963	4.7730415e+06

square_avg f4 [2]
0	0x4783f4f4	67561.91
1	0x47e982e0	119557.75

square_avg f4 [2]
0	0x6108ba5b	1.576366e+20
1	0x558c0bae	1.9247724e+13

square_avg f4 [1, 2]
0	0x5b126329	4.1204374e+16
1	0x5b126329	4.1204374e+16

square_avg f4 [4, 2]
0	0x4735ad0c	46509.047
1	0x44b7ad43	1469.4144
2	0x450a383d	2211.515
3	0x42e8e89c	116.454315
4	0x45196f10	2454.9414
5	0x4308c865	136.78279
6	0x455057b2	3333.481
7	0x43065584	134.33405
